…
            comm_key_size: 32
            comm_value_size: 32
            num_comm_heads: 2
            n_SK_slots: 4
            latent_layers: 1
            hidden_size: 64
            num_slots: ${dataset.max_num_objects}
          attention_iters: 3
          mlp_size: 128
          eps: 1.0e-08
          h_broadcast: ${dataset.height}
          w_broadcast: ${dataset.width}
        batch_size: 64
        
[INFO:train_object_discovery.py:108] Creating model
[INFO:train_object_discovery.py:110] Model summary:
        vmnnAE(
          (encoder): Encoder(
            (conv_bone): Sequential(
              (0): Conv2d(3, 32, kernel_size=(5, 5), stride=(1, 1), padding=(2, 2))
              (1): ReLU(inplace=True)
              (2): Conv2d(32, 32, kernel_size=(5, 5), stride=(1, 1), padding=(2, 2))
              (3): ReLU(inplace=True)
              (4): Conv2d(32, 32, kernel_size=(5, 5), stride=(1, 1), padding=(2, 2))
              (5): ReLU(inplace=True)
              (6): Conv2d(32, 32, kernel_size=(5, 5), stride=(1, 1), padding=(2, 2))
              (7): ReLU(inplace=True)
            )
            (pos_embedding): PositionalEmbedding(
              (channels_map): Conv2d(4, 32, kernel_size=(1, 1), stride=(1, 1))
            )
            (lnorm): GroupNorm(1, 32, eps=0.001, affine=True)
            (conv_1x1): Sequential(
              (0): Conv1d(32, 32, kernel_size=(1,), stride=(1,))
              (1): ReLU(inplace=True)
              (2): Conv1d(32, 32, kernel_size=(1,), stride=(1,))
            )
          )
          (slot_attention): SlotAttentionModule(
            (to_q): Linear(in_features=64, out_features=64, bias=False)
            (to_k): Linear(in_features=32, out_features=64, bias=False)
            (to_v): Linear(in_features=32, out_features=64, bias=False)
            (gru): GRUCell(64, 64)
            (mlp): Sequential(
              (0): Linear(in_features=64, out_features=128, bias=True)
              (1): ReLU(inplace=True)
              (2): Linear(in_features=128, out_features=64, bias=True)
            )
            (norm_input): LayerNorm((32,), eps=0.001, elementwise_affine=True)
            (norm_slots): LayerNorm((64,), eps=0.001, elementwise_affine=True)
            (norm_pre_ff): LayerNorm((64,), eps=0.001, elementwise_affine=True)
          )
          (vmnn): vmnn_cell(
            (mlp): Linear(in_features=64, out_features=128, bias=True)
          )
          (loss_fn): beta_VAE_loss()
          (decoder): Decoder(
            (pos_embedding): PositionalEmbedding(
              (channels_map): Conv2d(4, 64, kernel_size=(1, 1), stride=(1, 1))
            )
            (conv_bone): Sequential(
              (0): Conv2d(64, 32, kernel_size=(5, 5), stride=(1, 1), padding=(2, 2))
              (1): ReLU(inplace=True)
              (2): Conv2d(32, 32, kernel_size=(5, 5), stride=(1, 1), padding=(2, 2))
              (3): ReLU(inplace=True)
              (4): Conv2d(32, 32, kernel_size=(5, 5), stride=(1, 1), padding=(2, 2))
              (5): ReLU(inplace=True)
              (6): Conv2d(32, 4, kernel_size=(3, 3), stride=(1, 1), padding=(1, 1))
            )
          )
        )
[INFO:train_object_discovery.py:112] Model parameters summary:
        
        --- Trainable parameters:
            2400  encoder.conv_bone.0.weight
              32  encoder.conv_bone.0.bias
           25600  encoder.conv_bone.2.weight
              32  encoder.conv_bone.2.bias
           25600  encoder.conv_bone.4.weight
…
            num_slots: ${dataset.max_num_objects}
            dynamics: AD
            h_key_size: 32
            z_key_size: 32
            num_grus: 1
            num_dynamics_heads: 1
            loss: beta_vae
          attention_iters: 3
          mlp_size: 128
          eps: 1.0e-08
          h_broadcast: ${dataset.height}
          w_broadcast: ${dataset.width}
        batch_size: 64
        
[INFO:train_object_discovery.py:108] Creating model
[INFO:train_object_discovery.py:110] Model summary:
        vmnnAE(
          (encoder): Encoder(
            (conv_bone): Sequential(
              (0): Conv2d(3, 32, kernel_size=(5, 5), stride=(1, 1), padding=(2, 2))
              (1): ReLU(inplace=True)
              (2): Conv2d(32, 32, kernel_size=(5, 5), stride=(1, 1), padding=(2, 2))
              (3): ReLU(inplace=True)
              (4): Conv2d(32, 32, kernel_size=(5, 5), stride=(1, 1), padding=(2, 2))
              (5): ReLU(inplace=True)
              (6): Conv2d(32, 32, kernel_size=(5, 5), stride=(1, 1), padding=(2, 2))
              (7): ReLU(inplace=True)
            )
            (pos_embedding): PositionalEmbedding(
              (channels_map): Conv2d(4, 32, kernel_size=(1, 1), stride=(1, 1))
            )
            (lnorm): GroupNorm(1, 32, eps=0.001, affine=True)
            (conv_1x1): Sequential(
              (0): Conv1d(32, 32, kernel_size=(1,), stride=(1,))
              (1): ReLU(inplace=True)
              (2): Conv1d(32, 32, kernel_size=(1,), stride=(1,))
            )
          )
          (slot_attention): SlotAttentionModule(
            (to_q): Linear(in_features=64, out_features=64, bias=False)
            (to_k): Linear(in_features=32, out_features=64, bias=False)
            (to_v): Linear(in_features=32, out_features=64, bias=False)
            (gru): GRUCell(64, 64)
            (mlp): Sequential(
              (0): Linear(in_features=64, out_features=128, bias=True)
              (1): ReLU(inplace=True)
              (2): Linear(in_features=128, out_features=64, bias=True)
            )
            (norm_input): LayerNorm((32,), eps=0.001, elementwise_affine=True)
            (norm_slots): LayerNorm((64,), eps=0.001, elementwise_affine=True)
            (norm_pre_ff): LayerNorm((64,), eps=0.001, elementwise_affine=True)
          )
          (vmnn): vmnn_cell(
            (mlp): Linear(in_features=64, out_features=128, bias=True)
            (dynamics): AttentionalDynamicsUpdate(
              (z_key_transform): Linear(in_features=64, out_features=16, bias=False)
              (z_value_transform): Linear(in_features=64, out_features=16, bias=False)
              (h_key_transform): Linear(in_features=64, out_features=16, bias=False)
              (h_value_transform): Linear(in_features=64, out_features=16, bias=False)
              (h_query_transform): Linear(in_features=64, out_features=32, bias=False)
              (attn_out_transform_output): Linear(in_features=32, out_features=64, bias=False)
              (LayerNorm): LayerNorm((64,), eps=1e-05, elementwise_affine=True)
            )
          )
          (loss_fn): disentangled_beta_VAE_loss()
          (decoder): Decoder(
            (pos_embedding): PositionalEmbedding(
              (channels_map): Conv2d(4, 64, kernel_size=(1, 1), stride=(1, 1))
            )
            (conv_bone): Sequential(
              (0): Conv2d(64, 32, kernel_size=(5, 5), stride=(1, 1), padding=(2, 2))
              (1): ReLU(inplace=True)
              (2): Conv2d(32, 32, kernel_size=(5, 5), stride=(1, 1), padding=(2, 2))
              (3): ReLU(inplace=True)
              (4): Conv2d(32, 32, kernel_size=(5, 5), stride=(1, 1), padding=(2, 2))
              (5): ReLU(inplace=True)
              (6): Conv2d(32, 4, kernel_size=(3, 3), stride=(1, 1), padding=(1, 1))
            )
          )
        )
[INFO:train_object_discovery.py:112] Model parameters summary:
        
        --- Trainable parameters:
            2400  encoder.conv_bone.0.weight
              32  encoder.conv_bone.0.bias
           25600  encoder.conv_bone.2.weight
              32  encoder.conv_bone.2.bias
           25600  encoder.conv_bone.4.weight
…
[01:59<01:31]Epoch [2/400]: [149/156]  96%|█████████▌ [03:32<00:08]Epoch [2/400]: [150/156]  96%|█████████▌ [03:32<00:07]Epoch [2/400]: [94/156]  60%|██████     [02:16<01:22]Epoch [2/400]: [95/156]  61%|██████     [02:16<01:18]Epoch [2/400]: [83/156]  53%|█████▎     [02:00<01:31]Epoch [2/400]: [84/156]  54%|█████▍     [02:00<01:26]Epoch [2/400]: [125/156]  80%|████████   [02:47<00:37]Epoch [2/400]: [126/156]  81%|████████   [02:47<00:37][INFO:train_object_discovery.py:110] Model summary:
        vmnnAE(
          (encoder): Encoder(
            (conv_bone): Sequential(
              (0): Conv2d(3, 32, kernel_size=(5, 5), stride=(1, 1), padding=(2, 2))
              (1): ReLU(inplace=True)
              (2): Conv2d(32, 32, kernel_size=(5, 5), stride=(1, 1), padding=(2, 2))
              (3): ReLU(inplace=True)
              (4): Conv2d(32, 32, kernel_size=(5, 5), stride=(1, 1), padding=(2, 2))
              (5): ReLU(inplace=True)
              (6): Conv2d(32, 32, kernel_size=(5, 5), stride=(1, 1), padding=(2, 2))
              (7): ReLU(inplace=True)
            )
            (pos_embedding): PositionalEmbedding(
              (channels_map): Conv2d(4, 32, kernel_size=(1, 1), stride=(1, 1))
            )
            (lnorm): GroupNorm(1, 32, eps=0.001, affine=True)
            (conv_1x1): Sequential(
              (0): Conv1d(32, 32, kernel_size=(1,), stride=(1,))
              (1): ReLU(inplace=True)
              (2): Conv1d(32, 32, kernel_size=(1,), stride=(1,))
            )
          )
          (slot_attention): SlotAttentionModule(
            (to_q): Linear(in_features=64, out_features=64, bias=False)
            (to_k): Linear(in_features=32, out_features=64, bias=False)
            (to_v): Linear(in_features=32, out_features=64, bias=False)
            (gru): GRUCell(64, 64)
            (mlp): Sequential(
              (0): Linear(in_features=64, out_features=128, bias=True)
              (1): ReLU(inplace=True)
              (2): Linear(in_features=128, out_features=64, bias=True)
            )
            (norm_input): LayerNorm((32,), eps=0.001, elementwise_affine=True)
            (norm_slots): LayerNorm((64,), eps=0.001, elementwise_affine=True)
            (norm_pre_ff): LayerNorm((64,), eps=0.001, elementwise_affine=True)
          )
          (vmnn): vmnn_cell(
            (mlp): Linear(in_features=64, out_features=128, bias=True)
            (dynamics): SCOFFDynamics(
              (pool_gru): ModuleList(
                (0): GRU(64, 64, batch_first=True)
              )
              (grus_attn): MultiheadAttention(
                (out_proj): NonDynamicallyQuantizableLinear(in_features=128, out_features=128, bias=True)
              )
              (query_proj): Linear(in_features=64, out_features=128, bias=False)
            )
          )
          (loss_fn): disentangled_beta_VAE_loss()
          (decoder): Decoder(
            (pos_embedding): PositionalEmbedding(
              (channels_map): Conv2d(4, 64, kernel_size=(1, 1), stride=(1, 1))
            )
            (conv_bone): Sequential(
              (0): Conv2d(64, 32, kernel_size=(5, 5), stride=(1, 1), padding=(2, 2))
              (1): ReLU(inplace=True)
              (2): Conv2d(32, 32, kernel_size=(5, 5), stride=(1, 1), padding=(2, 2))
              (3): ReLU(inplace=True)
              (4): Conv2d(32, 32, kernel_size=(5, 5), stride=(1, 1), padding=(2, 2))
              (5): ReLU(inplace=True)
              (6): Conv2d(32, 4, kernel_size=(3, 3), stride=(1, 1), padding=(1, 1))
            )
          )
        )
[INFO:train_object_discovery.py:112] Model parameters summary:
        
        --- Trainable parameters:
            2400  encoder.conv_bone.0.weight
              32  encoder.conv_bone.0.bias
           25600  encoder.conv_bone.2.weight
              32  encoder.conv_bone.2.bias
           25600  encoder.conv_bone.4.weight
…
